TFv1_model.tflite (tflite, 309152 bytes, 15 tensors)

convolition_5/Conv2D_bias f4 [64]
00000000: c28b aabd 7536 b63c b460 cc3c 7b5c 323b
00000010: e122 29be 3b82 31bd 5770 373c ce32 7d3c
00000020: 8acf b9bd 1a6b e3bc f30d d3bc 601c 9a3d
00000030: 2e48 a7bd a29a 45bd 7c7d e7bd 1248 bebd
00000040: 2124 8cbd 89c7 053e fcc1 7dbc db4d 7ebd
00000050: 196f f5bc a827 8ebd a33b 0abd e0ff 7dbd
00000060: e42b 943d aefc 14bd ff47 dcbc 8708 69bd
00000070: 934d 36bd ad14 4bbd a621 20bd d075 81bd
00000080: 5d83 a4bd 3f57 41bd 491e 26bd 2458 08be
00000090: 2a47 6abd 1983 14bd ef15 94bd 8e7a 0abe
000000a0: ea07 d4bd d674 18bd 2d13 b1bd f268 0f3b
000000b0: 5374 39be 9e7b 9bbe 31ab 5ebd be24 a6bc
000000c0: f090 053e 605e 47bd 89a3 83bd 6f66 933d
000000d0: 895d 203d 13e1 763b 82bb c4bd fabe 93bc
000000e0: 115f c1bc 5e9b 41bd 4ebb 91bb f31d 72bd
000000f0: 5d27 52bd 8b7e 2ebd 1fcb 4fbe 56ad 123d
-0.08327438 0.022242764 0.024948455 0.0027215767 -0.16517211 -0.043337088 0.0111962175 0.015454007
-0.09072788 -0.027761031 -0.025763487 0.07524943 -0.08168064 -0.048243172 -0.11303231 -0.0929109
-0.068428285 0.13064398 -0.015488144 -0.062085968 -0.029960202 -0.069411576 -0.03374828 -0.0620116
0.07234934 -0.036373787 -0.0268898 -0.056892898 -0.044507574 -0.049580265 -0.03909459 -0.06321299
-0.08032868 -0.047202345 -0.040556226 -0.13314873 -0.057196774 -0.036257837 -0.07230746 -0.13523313
-0.10353072 -0.0372208 -0.086462356 0.002188262 -0.1811078 -0.3036775 -0.05436248 -0.020281192
0.1304357 -0.048673987 -0.06427676 0.07197272 0.039151702 0.0037670776 -0.09606077 -0.0180354
-0.023604902 -0.04726731 -0.0044473773 -0.059110593 -0.05130707 -0.04260115 -0.20292328 0.035809837

convolition_5/kernel f4 [64, 3, 3, 32]
00000000: b994 65bd 9082 b03c 9e4b 5dbd 5c08 78bd
00000010: 0fde 1b3c 6d57 b4bc 7179 913c 4e7a 043d
00000020: e108 80bd 814e a23d 1f72 c5bb 9b0b f5ba
00000030: 4507 d83d f46b b4bd b742 06bc 47a8 933d
00000040: 5e85 d0bc ab03 9c3d a0db d0bd c055 8e3d
00000050: ebd5 1fbd 1f45 77bd 86de 37bd dafc 95bd
00000060: e327 cd3d 101f 84bd 6f03 eabd ca2e 82bd
00000070: 7f4b 1e3d e706 72bc 467c 1b3d 383c b2bd
00000080: 435e 82bb e21d 97bd 5790 8f3d 2321 49bd
00000090: 304f cdbc 8cc1 c0ba 9926 d3bd 5d6d bbbd
000000a0: 3de6 34bc 13f0 5e3c 3339 79bd 8796 69bd
000000b0: cc2a 113e 520d 123d 8bc2 353d 1873 4cba
000000c0: 862b b0bb 8825 45bd dd66 d9bd 061d 863d
000000d0: d3d5 4ebd e83d 14bc 32a2 5dbd f4f9 d33c
000000e0: 9e73 733d 72ca e1bc 766d f7bd e9a7 bbbd
000000f0: ec03 ec3d 3ba6 20bc bd5e 0e3d 63c5 a3bd
00000100: ad8a eeb9 5c02 54bd 7338 c53d 919f 97bc
00000110: 249a 22bd 787e 333d 66b0 ad3c c1bf 74bd
00000120: cd67 8abd 5abc bd3d 3bb6 65bd 8335 a9bc
00000130: aff8 8bbc 00fe c7bc 5242 0f3d ada4 78bc
00000140: 7cb1 7e3c dabc 7b3d ee17 dcbd 8e35 d1bc
00000150: 5a81 5d3d b76e df3c 3814 463d 6ec6 59bd
00000160: 984a 6c3c 28f2 443d 017c 7b3d 428d 6b3d
00000170: 011d ddbd f170 a2bd d90d 17be 0f4f d6bc
00000180: 23c4 34bd d66c 01bd e55f 41bd 0c8f f3bb
00000190: 7ac9 17bd 79e7 4e3a a99c aabb 1493 81bd
000001a0: 9056 7cbd 472b 5c3c 4f99 8f3d 331f 513c
000001b0: 5e57 bf3d c5ae 063e c38c 453c d857 273c
000001c0: be55 b5bc 0ef0 50bb 4830 9ebd 05e7 2bbd
000001d0: 7944 c3bd 5a1b 3f3d 48f6 cbbd 53c6 5cbd
000001e0: 1245 98bc 1914 6fbd 2089 bbbd 31f5 8bbd
000001f0: 64ee 44be be98 92bd 404a 723d 0cfb 40bd
00000200: b4c6 fa3c 2757 bfbc 64e9 4e3c c882 7dbc
00000210: 8991 d1bd e8e7 3d3d 7a9d 6dbd 8409 96bc
00000220: 0fbd 833c 5da9 6b3d 02e7 81be 8094 a0bd
00000230: eb9d 78bc 024f a2bd a2bd efbc 3954 613d
00000240: 0aeb ccbd 64af 763d 1b0e 69bd 22d4 71bd
00000250: a365 88bd 06cf 1f3d 2c16 e43c 896c fdbc
00000260: adb5 8d3c 5c9e 4c3e 4739 03be 91d3 63bd
00000270: 5f1d fc3d 444f 51bd ccee aabd 6424 79bd
00000280: 094c 3ebd 40af 97bd f500 343d 2908 9fbd
00000290: ebde 63bd cd32 e2bc 0e6e 1d3c ce91 87ba
000002a0: 5646 56bd 6697 95bd b417 58be 3746 7f3d
000002b0: 0160 1fbc 12d9 22be 0997 7cbd 0c32 25bd
000002c0: ef86 6d3d 346c 583c 9003 09be 17a3 fcbc
000002d0: c4db 523d cb2f 263d 873e 81bc 7c5a 8dbc
000002e0: a4fb 8abb 68e1 fdbd 4ab4 c73c 843c 16bc
000002f0: 6afd 9bbd 7929 cbbd 17ab 2e3c 21b3 e33b
00000300: 4c2d 333d 2033 c03c 9d9b 833c a455 76bd
00000310: 3708 4c3c 3dea a13c 2175 ec3c e668 4fbd
00000320: bdbc 203c 709b f3bd cec2 e9bd 1a2b a1bd
00000330: 323d 9e3d fa9a 14be af21 dd3c 9eb8 8b3d
00000340: 96e7 ddbb ab4f e33b c2e2 23bd 193b dabd
00000350: f9ad 0bbd 772f a5bc 4c10 fabd 1986 363c
00000360: a6a4 4f3c 0ed7 31bd 5445 913c e92c 66bd
00000370: 2b29 73bd 9849 3fbd 670a 3d3c f36e e0bc
00000380: 90f0 44bd 415f 3ebd 7d13 2ebd d8ab 64bd
00000390: d918 163d 8e9c 9dbd 29cb 5e3d 6ab8 813d
000003a0: 4284 e5bc 0874 0b3b cfc7 d4bd 897e 863c
000003b0: d9e8 aabd 6d53 653d afb2 73bd d6b2 34bc
000003c0: 7555 3cbd e50a a7bd 1da5 1c3d bccf 583b
000003d0: fb1b 27bd 415a 893d e789 473d b649 2fbe
000003e0: 4598 0d3c 8ddb 0abe 1e53 afbd e4bd 8ebd
000003f0: 97d8 11be 85ec 42bd b3f7 febb a1c1 35bd
-0.056050036 0.021546632 -0.054027192 -0.060554847 0.009513392 -0.022014344 0.017758103 0.0323432
-0.062516935 0.0792513 -0.006025567 -0.0018695475 0.105482616 -0.08809653 -0.008194617 0.07209831
-0.02545422 0.07617887 -0.1019814 0.06949949 -0.039022367 -0.060368653 -0.04488995 -0.07323618
0.100173734 -0.06451237 -0.11426436 -0.063565806 0.038646217 -0.014772153 0.037960313 -0.08702892
-0.003978522 -0.073787466 0.070099525 -0.049103867 -0.025062174 -0.0014706119 -0.10310096 -0.09151719
-0.011041221 0.013607043 -0.060845565 -0.05702832 0.14176482 0.035657234 0.044374984 -0.0007799133
-0.005376282 -0.048131496 -0.10615323 0.065485045 -0.050496887 -0.009047963 -0.05410976 0.025876023
0.059436433 -0.027562354 -0.12081425 -0.09162886 0.115241855 -0.009805257 0.03475832 -0.07996633
-0.0004549822 -0.051760063 0.096299075 -0.018508704 -0.03969778 0.043821782 0.021202277 -0.059753183
-0.0675808 0.09264441 -0.05608199 -0.0206554 -0.017086355 -0.024413109 0.034975357 -0.0151759805
0.015545245 0.0614594 -0.10746752 -0.025538232 0.054078437 0.027274473 0.048359126 -0.053167753
0.014422081 0.0480825 0.061397556 0.05750776 -0.10796548 -0.07931698 -0.14751376 -0.026160745
-0.044132363 -0.031597935 -0.047210593 -0.007432824 -0.037057377 0.00078927685 -0.0052066636 -0.06326881
-0.06160599 0.0134380525 0.07011663 0.012763786 0.09342836 0.13152607 0.012057486 0.010213815
-0.022135612 -0.0031881365 -0.07724053 -0.041968364 -0.095345445 0.046656944 -0.09959084 -0.053900074
-0.018587623 -0.058368776 -0.09157014 -0.06833876 -0.19231564 -0.071580395 0.05915284 -0.047114417
0.030612327 -0.023356987 0.012628887 -0.015473075 -0.10232837 0.04636374 -0.05801151 -0.018315084
0.016081361 0.057534564 -0.25371557 -0.07840824 -0.015174369 -0.07925226 -0.029265229 0.05501196
-0.10005768 0.06022586 -0.056898218 -0.059040196 -0.06660011 0.039015792 0.027842604 -0.030935543
0.017298544 0.19982284 -0.12814818 -0.055621687 0.123102896 -0.051100984 -0.08346328 -0.06082572
-0.04645923 -0.07406473 0.043946225 -0.07765228 -0.055632513 -0.027612114 0.009608759 -0.0010343136
-0.05231317 -0.073042676 -0.21102792 0.06232282 -0.009727479 -0.15903118 -0.061667476 -0.04033093
0.05799001 0.013209391 -0.13380265 -0.030839486 0.051479116 0.040572923 -0.015776886 -0.01725506
-0.0042414237 -0.123965085 0.02437796 -0.0091697015 -0.07616694 -0.0992002 0.010660908 0.006948844
0.04374437 0.023461878 0.016065413 -0.060140267 0.01245313 0.019765014 0.028864445 -0.05063715
0.009810624 -0.11894882 -0.11414109 -0.07869549 0.07726516 -0.14512244 0.0269936 0.06822322
-0.006771992 0.0069369874 -0.040011175 -0.10655803 -0.03410146 -0.020164235 -0.1221014 0.01114037
0.012673533 -0.043417983 0.017733254 -0.056195173 -0.059365433 -0.046701044 0.011538125 -0.027396655
-0.04808098 -0.04647756 -0.042499054 -0.055827945 0.03664479 -0.07695876 0.054392967 0.06334002
-0.028017167 0.0021278877 -0.10389673 0.016417759 -0.083451934 0.055987764 -0.059496578 -0.011028966
-0.045979936 -0.08156375 0.0382434 0.0033082804 -0.04079817 0.06706668 0.0487155 -0.17117962
0.008642261 -0.13560314 -0.08560775 -0.069698125 -0.14242779 -0.047588844 -0.007780993 -0.044374112

convolution_2/Conv2D_bias f4 [16]
00000000: 060d 7abd e66f 86bd c979 02bd cefa adbd
00000010: b921 383f 2507 44bd 1faa 1abd b9f7 673e
00000020: ea0d 16be 89d0 58bf da30 a1bd 3d39 873e
00000030: 23fc 9ebd 6b19 073f 5f45 26bd 87b4 153b
-0.061047576 -0.06564312 -0.031854425 -0.08495103 0.71926457 -0.047858376 -0.037759896 0.22653092
-0.14653745 -0.846932 -0.07870646 0.26410857 -0.07762935 0.5277316 -0.0405935 0.0022843198

convolution_2/kernel f4 [16, 3, 3, 16]
00000000: 6b29 27be 09e5 08be 8551 acbd 288d 23be
00000010: eba6 04be 24fe 073d 2165 c7bc 865b 2838
00000020: d710 433d ad10 093d f075 0dbe 223e 9d3d
00000030: bbe0 b7bd 9b95 92bd f167 233d e40e 28be
00000040: b902 8c3d 69ca fcbc 606f 1ebc f7a3 d5bd
00000050: 3b87 f43b 18ca 0abe 92f1 1f3c 1f84 40be
00000060: ff77 dbbd a099 9b3d 1e32 593d 521f f5bd
00000070: 3c8f 40bd aab1 353d f983 323d 8cb3 3c3d
00000080: 5447 cfbd d65c 49bc ffa5 b8bd 7e80 aa3b
00000090: b5b1 1c3c 66f6 9e3d b6e4 8c3c 12a0 5d3d
000000a0: 1487 a0bd edd1 0dbd 0e1a a4bd 7af5 b63d
000000b0: da85 06be da57 03be 35b7 35bd a0d7 183d
000000c0: b915 2cba a8aa c0bb 371a dcbd 9e0b 0abd
000000d0: c92d 02be 61d0 c6bd f88c 4bbe 6d04 92bd
000000e0: 6a94 523c 96f7 c03b befd d13d 1640 0d3d
000000f0: 8e51 563d 2fec e63c 2f76 333d dc20 1bbe
00000100: e699 963d 4d36 39be feb1 253e 8729 72bd
00000110: 8f17 843d 4ad1 83bd e74e 093d f625 bcbb
00000120: 292e a73d 9fe7 1abd b671 c4bd e66b 32be
00000130: 2992 adbd 9b55 0abe 5e0e 113d dca8 723b
00000140: e0ab 0fbe e320 0ebe d330 b73d 6dc2 1a3c
00000150: a827 a73d 278e 953c a94d debd 62be 37be
00000160: dd12 a73c 31a3 e6bd 11c0 a8bd 8c2e 2e3d
00000170: 3265 19bd 2e97 883c baf7 8cbb dcf9 ed3b
00000180: 803c c4bc 5f59 6ebd 00da 17be 0be2 e0bd
00000190: 0ee0 593b 3ac3 933c 6300 5abd 1e6e 40be
000001a0: 3dd7 b23c 5524 60bd f078 b4bd 0153 48be
000001b0: 3ba5 a8bc fd05 073d 9af2 09be 6b04 36bd
000001c0: d261 5cbd e009 483d c731 ee3d eaa9 0c3c
000001d0: a50e 023e 348b f1bd 63e1 b0bd ffc1 8a3c
000001e0: 3099 903c 62d6 f23c 8e47 b93d 2aa6 39bd
000001f0: 04d6 9dbd 5bb8 9e3c e558 4abe 14e1 0fbe
00000200: 862b 75bd 5669 79bd 7733 183b 4090 c43d
00000210: e410 623d 7834 573d 3554 1bbe 03fc dbbd
00000220: 5cff bf3d 2ffd 913d 0ea0 3abe d75d 283d
00000230: ab80 d7bd 97aa 233e 79bc 883d d26b 11be
00000240: 4db4 263d b0a0 873d ec4c 6cbd 7c93 fb3c
00000250: 94c7 a03d 29f0 1ebe 0718 4cbe 2bef 353c
00000260: c076 933c 273d 893c 9ebf f3bd 8b92 de3d
00000270: 3535 31ba 132e c43c 18ea 053d 138c 13be
00000280: 9b12 603d a7f4 e3bd cd50 51bd 7d91 8e3d
00000290: e7a0 1ebe 29b6 26be 4a8a a4bc c056 833c
000002a0: 358f 93bd d883 b9bd eca2 55bc 3a32 b3bd
000002b0: a338 7cbd 5d54 8f3c ec86 2dbe 041c 133c
000002c0: dcb0 27bc 8138 8d3c 82ec b23d bd1e d73d
000002d0: 5b9c 6f3d e889 b53d f644 72bd 6883 0abe
000002e0: 5654 70bd b1db 013e e0d4 78bd 20c9 8a3c
000002f0: 06bd 01be edc0 803e ba72 673c bc66 e23d
00000300: 94ac 9dbd d005 f3bd 956e 8ebd 5a15 9ebc
00000310: 00b4 31be 5619 7abd c372 153c bf47 7ebd
00000320: d302 21be 9bc1 a43d 685f 133a 71de 843d
00000330: d82f 17be 0f6c 743d ccb7 e0bd 5763 9bbd
00000340: 7284 cebd 0a1c 8d3c 857b aabd 4552 32be
00000350: 6081 ff3b 5996 fabd bbb8 52bd 07a3 313d
00000360: 3d67 c13b f916 9e3b 3ddf e23c a5db 07be
00000370: 0a8f 51bd 7acb 9d3d 20ab 2bbe 7d62 fdbd
00000380: 07af 5cbd a35e 27be b172 1c3e d4b2 4cbd
00000390: e82a 723d 95a9 15be 181c d7bd 2d27 b73d
000003a0: 5dfd 22be 501c 463c 3064 0cbe cac9 983c
000003b0: 516f e1bb 98a9 9abd 57eb febc ac12 e0bc
000003c0: 93f7 d13d db3a 1bbe 9c0c 8bbd a2eb 59bd
000003d0: 39aa 0cbe 82db 073e 5c0a 18bc a6b4 6c3d
000003e0: a0db d1bb c7b2 043d c152 da3d 9284 f53d
000003f0: d6b6 3ebe c367 e8bd 5d1b 8ebd f5dc 463d
-0.16324393 -0.1336862 -0.08413986 -0.15971816 -0.12954299 0.03320135 -0.024340214 4.013956e-05
0.04762348 0.03346317 -0.13814521 0.076778665 -0.08978411 -0.07157441 0.039894048 -0.1641193
0.06836457 -0.030858235 -0.009670109 -0.104316644 0.00746241 -0.13553655 0.009762185 -0.188004
-0.10716247 0.07597661 0.05302631 -0.119688645 -0.0470116 0.044358887 0.04358289 0.046069667
-0.10121027 -0.0122902 -0.09016036 0.0052033057 0.009563853 0.077618405 0.017198902 0.054107733
-0.07838264 -0.03462403 -0.08012782 0.0893354 -0.13136998 -0.12826481 -0.044364173 0.03731501
-0.0006564516 -0.005879719 -0.107471876 -0.033702485 -0.12712778 -0.09707714 -0.19877994 -0.071297504
0.0128527675 0.0058888895 0.102534756 0.034484945 0.05232387 0.028188793 0.04381388 -0.15149254
0.073535725 -0.1808712 0.1618118 -0.059121635 0.06449806 -0.06436403 0.033522513 -0.00574183
0.08163101 -0.037818547 -0.09592001 -0.17423972 -0.084751435 -0.13509218 0.035414092 0.0037026918
-0.14030409 -0.13879733 0.08944859 0.009445769 0.08161861 0.01825626 -0.10854656 -0.17943719
0.020394737 -0.11261595 -0.08239759 0.04252486 -0.037450023 0.01667365 -0.0043019922 0.0072624516
-0.02395463 -0.0581907 -0.14829254 -0.10980614 0.003324512 0.018037427 -0.053223025 -0.18792006
0.02183115 -0.05472215 -0.088121295 -0.19562913 -0.0205866 0.032964695 -0.13471451 -0.044437807
-0.053804226 0.048837543 0.11630588 0.008585433 0.12700899 -0.11794129 -0.08636739 0.016938208
0.01765117 0.029643241 0.09046851 -0.045324482 -0.07706836 0.019375017 -0.19760473 -0.14050704
-0.05985596 -0.06089147 0.0023224035 0.09597826 0.05519189 0.052540272 -0.15168841 -0.10741427
0.09374878 0.07128369 -0.18225119 0.041105118 -0.10522588 0.15983044 0.06676573 -0.14201286
0.040699292 0.066224456 -0.057690546 0.030709974 0.078505665 -0.15521301 -0.1993104 0.011104385
0.01800096 0.016752793 -0.119017825 0.108677946 -0.00067599426 0.023947751 0.032693952 -0.14408903
0.054705244 -0.11130648 -0.05110245 0.069613434 -0.15491067 -0.16280426 -0.020085473 0.016032577
-0.07205049 -0.0905835 -0.013039332 -0.08749814 -0.06157745 0.017496282 -0.16946 0.008978847
-0.010235038 0.017238857 0.087365165 0.1050391 0.05849872 0.08864194 -0.059147798 -0.1352669
-0.05867418 0.12681462 -0.06074989 0.016941607 -0.12669763 0.2514719 0.014126474 0.11054751
-0.07698932 -0.11866343 -0.069546856 -0.01929729 -0.17353821 -0.06105932 0.0091216 -0.06208014
-0.15723734 0.0804474 0.00056218216 0.0648774 -0.14764345 0.059673365 -0.109725565 -0.07587307
-0.10083856 0.017225284 -0.08324341 -0.17414196 0.007797405 -0.12235708 -0.051445704 0.043368366
0.0059021995 0.004824516 0.027694339 -0.13267381 -0.051161803 0.07704826 -0.16764498 -0.12372301
-0.053877857 -0.16344695 0.15278126 -0.04997523 0.05912295 -0.14615472 -0.10503405 0.08943019
-0.15916963 0.012091711 -0.13710093 0.018650908 -0.006879725 -0.07551879 -0.031118078 -0.027352653
0.10252299 -0.1515917 -0.067895144 -0.053203233 -0.1373681 0.1326733 -0.009279814 0.057789467
-0.006404355 0.032397058 0.10660315 0.119881764 -0.18624434 -0.11347916 -0.06938813 0.048550565

convolution_3/Conv2D_bias f4 [32]
00000000: a326 c7bd 6532 c5bd 44bc f3bd f268 3ebd
00000010: 988c 25bd 236a 37bd ea72 21bc b5db edbd
00000020: 581b 05be af9b 22bd 8bc9 81bd a4e5 02be
00000030: 5950 bebd 082c 9dbc c2a7 1dbe 4c02 19bd
00000040: 0687 74bd 975b cc3e 8fde 05be cd38 e6bc
00000050: fbab 0dbc 045c 1c3b ea84 ab3d 4977 003e
00000060: 22be 6bbe 26ed cfbc 133c 1cbd faa0 06bd
00000070: 7a97 46bd 5fe9 9ebd 5866 03be c491 88bd
-0.09724166 -0.096287526 -0.11901143 -0.046486802 -0.040417284 -0.044778954 -0.009854058 -0.116141714
-0.12998712 -0.039699253 -0.063372694 -0.12782913 -0.09292669 -0.019186035 -0.15396026 -0.037355706
-0.05969908 0.39913628 -0.1307318 -0.028103257 -0.00864696 0.0023858557 0.08374961 0.12545504
-0.23021749 -0.025381636 -0.03814323 -0.032868363 -0.048484303 -0.07759356 -0.1283201 -0.066684276

convolution_3/kernel f4 [32, 3, 3, 16]
00000000: 34ad b4bd 41c0 ec3d 160b eabd c695 153e
00000010: ae3a 3cbe 4eb0 9abd b57e e1bc dd2f 86be
00000020: 27d1 b5bd da5d 7e3d b52c b23c f7eb 4bbe
00000030: 7644 febb d9e1 66be ba20 fa3d f7ab 163d
00000040: f024 503d 96b8 18bd 102b 29be 430c 16bc
00000050: 03b5 12bc 0d22 ccbd edcd e63c e67b 223e
00000060: 779a d33c b566 353d a4c9 d6bd 4479 c6bd
00000070: 482b 5fbd 3a3a a4bd 7486 f5bd ab95 a53c
00000080: 85a1 17bd eb1b b9bc 8628 11be 8f24 1dbd
00000090: ea5d afbd e380 e0bd d19f a0bd 27f1 7fbe
000000a0: 5c9c 9e3b b170 d9bd 90fd 06bd 9c4e 97be
000000b0: fdf2 a53c 01d8 213d 6d28 d83c d805 96bd
000000c0: 8c60 2abb 49f1 523c 7997 59bc 0c47 90bc
000000d0: 013d d9bd 8f27 d93d ad37 0e3d a6e0 a8bd
000000e0: db01 a0bc 33f5 09be f561 99bd 57b6 8f3e
000000f0: 7b50 31bd 274f cbbd 5874 b43d 8afb 703d
00000100: 6657 f33d 3de4 62bc 22f0 fabd bdee 023e
00000110: cf71 c2bc 970f 90bd c747 9abd 48e6 d9bc
00000120: efff 85bd 890d 7cbd 6b80 b93d cacc 63be
00000130: ae0e dd3d e9bf 03be 0b4b b23d 00e1 dfbb
00000140: 31b8 623d 67c1 a53d 18c6 a2bd 54f2 c53d
00000150: 1b56 793d ba70 e5bc 10ab 00be 9f97 82be
00000160: 218c b4bd 469a 91bd d0a0 333d 470a 44be
00000170: dc23 4b3c ea34 55be 5454 aabd fc8b a13a
00000180: c060 f6bc c1b3 403d 51e3 11bd 869c 503d
00000190: 96c2 28be 8c15 ba3c 2bdd 973d 3503 ad3e
000001a0: 30d6 3dbe ffb8 253d fb3f 74bd 53f8 babb
000001b0: 9df6 d13d e312 97bd 1c85 d5bd 4a2b 2cbd
000001c0: 722e e43d c6d9 1c3c 1406 c8bd 45cf 313d
000001d0: 4ba2 08be dfb4 6a3d 39e3 85bc ad2f 473e
000001e0: b601 823d 5cb9 8fbd 28ef 46bc 30aa 90be
000001f0: c361 16bd 93ff 5dbd 4a66 ffbd 4b2b ef3d
00000200: 0305 8f3a c175 f3bd ff89 a1bd 8faa ebbd
00000210: cd24 163d e3a8 7dbd 6561 e13c 495e aebe
00000220: a910 0bbd 9f39 dabd f705 31bd e931 06be
00000230: d883 883d fb9b 9ebc 4604 083d 49be 21be
00000240: f77c 863d 8c79 6fbd 6c26 d53a 5bd9 33be
00000250: 2519 b5bd 6a0b d7bd d411 2dbd a50b e7bd
00000260: ef53 72bd 2cf6 d4bc e8a9 63bd af06 06bd
00000270: dc7a 743d 33db 8b3b 6749 62bd 635d f53d
00000280: 3d9c 66bc a6ff b0bd 30eb 89bd f9e6 c3bd
00000290: 43cb 09be 94dd 51bd f431 473d 99c9 033e
000002a0: e533 8d3c 9096 9dbd bca7 c43d e8e5 1b3d
000002b0: 69bb 383c 5e71 8dbe e785 c2bd 8376 44bd
000002c0: 7e20 f3bd fba5 2d3d a751 933a 1707 a9bd
000002d0: ee9d 96be 7f52 bf3d 8dc9 8cbc 2b49 14be
000002e0: aefe c2be 6482 19be 47cd 00bd d90e 00bf
000002f0: 62eb 71bd 4abd a13e 8838 8fbd dfa3 523c
00000300: 642d 1bbd aeea a43d 2aec 18bd eb35 aabd
00000310: c223 d43d 7a20 bbbc bf08 62bd c0f6 21be
00000320: 3b16 94bd 55c5 023d ddc6 8fbd 89c6 c8be
00000330: 7539 1b3e c71a 1cbe 3237 5dbc ba6b 94bd
00000340: 1e9f d9bd 3c11 fcbd 16a3 debb ae9c 4dbd
00000350: 760f c4bd 6bb2 5abd e66d b53d 0550 8cbd
00000360: eab3 05bd 835f 06be 7d94 e63c 159e 58be
00000370: d241 043d c771 30be 502e 28bd eaef c8bd
00000380: d182 7e3c 27e6 69bd 3161 d6bd bca8 febd
00000390: 8cd7 bbbd eb71 0bbd 5ef0 c33c cb2f 823e
000003a0: 2f8a a6be 43a1 8cbd 59a5 16ba 4404 963e
000003b0: be34 8dbd 1a10 d83c 5a7c ae3c e8e1 efbd
000003c0: 4da9 32bd 1fa9 55bb c69a 8cbd 2fa6 19bd
000003d0: 8ecc cebd 0cd2 cbbd b646 003d e37b 803e
000003e0: f047 b73d 5ee0 19be d52a 24bd 8eba 803c
000003f0: ce75 223d 5659 4cbe 17d9 3bbd d938 52bd
-0.088220984 0.11560107 -0.11427896 0.14607915 -0.1838176 -0.07553159 -0.027526239 -0.26208392
-0.08877783 0.062101223 0.021749834 -0.19914232 -0.007759626 -0.22547092 0.12213273 0.036785092
0.050816476 -0.03728541 -0.16520333 -0.009158197 -0.008954289 -0.09967432 0.028174365 0.15867576
0.02583049 0.044287402 -0.10487679 -0.09691098 -0.054484636 -0.08018918 -0.119885355 0.020212969
-0.03701927 -0.02259632 -0.14175615 -0.038364943 -0.085628346 -0.10962083 -0.078429826 -0.24994336
0.004840417 -0.10617197 -0.03295666 -0.29552162 0.020257467 0.039512638 0.026386464 -0.07325333
-0.0025997488 0.01287491 -0.013280743 -0.017612003 -0.10607339 0.10603248 0.034721065 -0.08245973
-0.019532135 -0.13472442 -0.07489387 0.28068802 -0.043289643 -0.099272065 0.08811253 0.058833636
0.11881904 -0.013848362 -0.12252833 0.12786384 -0.023735909 -0.070342235 -0.07533222 -0.026599064
-0.06542956 -0.061536346 0.09057697 -0.2224609 0.107938156 -0.12866177 0.087057196 -0.006832242
0.05535144 0.08093529 -0.0794794 0.09665361 0.060873132 -0.028007854 -0.12565255 -0.25506303
-0.0881579 -0.071095034 0.043854535 -0.19144545 0.012398686 -0.20820966 -0.083168656 0.0012325044
-0.03007543 0.047046427 -0.035617176 0.050930522 -0.16480479 0.022715352 0.07415231 0.3379151
-0.18538737 0.04045963 -0.05963133 -0.005705872 0.10252116 -0.07376649 -0.10425779 -0.04203347
0.11141671 0.009573406 -0.09766784 0.04341056 -0.1334316 0.0573014 -0.0163437 0.1945178
0.063479826 -0.07017776 -0.01214198 -0.28254843 -0.036714327 -0.054198813 -0.12470682 0.11678179
0.0010911528 -0.11887694 -0.07887649 -0.11507141 0.03665619 -0.06192864 0.027512262 -0.3405631
-0.033951435 -0.106555216 -0.04321858 -0.13104977 0.06665772 -0.019361487 0.0332072 -0.15795244
0.06566804 -0.058465526 0.0016262061 -0.17563383 -0.088426866 -0.10500224 -0.04225333 -0.11281518
-0.059162077 -0.02599629 -0.055581957 -0.032721218 0.05968748 0.004268074 -0.055245783 0.11980703
-0.014075336 -0.08642511 -0.067343116 -0.09565539 -0.13456444 -0.051236704 0.048631623 0.12869872
0.01723666 -0.07694733 0.09602305 0.038061053 0.011275151 -0.27625555 -0.09498196 -0.047964584
-0.11871432 0.04239462 0.0011239544 -0.082533054 -0.29417366 0.09341907 -0.01718595 -0.14481036
-0.3808493 -0.14991146 -0.031445768 -0.50022656 -0.05906237 0.3158973 -0.06993204 0.012856453
-0.037885085 0.08052574 -0.0373346 -0.08311065 0.10358383 -0.022842634 -0.055184122 -0.15816784
-0.072308026 0.03192647 -0.07020352 -0.3921397 0.15158637 -0.1524459 -0.013501929 -0.0724711
-0.10626052 -0.12307975 -0.0067943437 -0.05019825 -0.095732614 -0.05339281 0.08858852 -0.068512
-0.032642283 -0.13122372 0.028146977 -0.21154054 0.032289334 -0.17230903 -0.041059792 -0.09811385
0.015534119 -0.057104256 -0.104677565 -0.12434527 -0.09171972 -0.034044188 0.023918327 0.25427088
-0.325273 -0.06866696 -0.00057466846 0.2930013 -0.068948254 0.026374865 0.02129953 -0.1171301
-0.04361849 -0.0032602025 -0.06865458 -0.037512 -0.100976095 -0.09952173 0.031317435 0.25094518
0.08949268 -0.15026996 -0.04007991 0.015713956 0.03966313 -0.19955954 -0.04586133 -0.051323745

convolution_4/Conv2D_bias f4 [32]
00000000: d897 163d 116c a6bc 364e 8dbd 6137 293c
00000010: d142 f2bc 15d0 bebd df5b babd 0bf4 ecbd
00000020: 2a27 4abd ddaa d13e eef5 d0be 5d1d 77bc
00000030: fef5 a7bd b82d 9c3c 0d06 62bd 9e9a 0ebd
00000040: ad0b 5b3e 03ce 733e fccd 52bd e85a b3bd
00000050: d213 e4bd a94b 5bbd a9c5 0e3e f5a8 19be
00000060: 38ef 373d f169 12bc 3a6b ccbd 19b2 7bbe
00000070: 3b45 eabc 4fe0 89bd 0df6 7e3e 7165 52bc
0.036765903 -0.020315202 -0.06899683 0.010328145 -0.029572876 -0.09317032 -0.09099554 -0.11569985
-0.049353756 0.4095067 -0.4081263 -0.015082684 -0.08201216 0.01906477 -0.05518155 -0.034815423
0.21391173 0.23809056 -0.051465973 -0.08757573 -0.11136593 -0.053538952 0.13942589 -0.15005858
0.04490587 -0.008936391 -0.09981389 -0.24579658 -0.028597465 -0.067322366 0.24898548 -0.012841568

convolution_4/kernel f4 [32, 3, 3, 32]
00000000: c881 84bd 062b 2f3d 9e07 0bbe 19b0 d6bc
00000010: bd77 aabd 7938 c83c 5cde 38be 9211 19be
00000020: d40f 283e 1167 ee3b d590 03be b7a4 503e
00000030: aaff 883d d7c3 b4bc ad33 efba e0ce febc
00000040: 4768 53bd 14f2 0a3e 4269 2d3d 188c 0a3e
00000050: 94f1 94bd 06a2 103d 0325 c3bc f2a7 4e3d
00000060: 4c18 f93d bc0a 62bd 978c 3d3d a911 1d3c
00000070: 5eee ecbd 62ac 393c 8904 883d 1e15 6f3c
00000080: 2c5a bcbd 043c 9bbd 667e f0bd 4aa8 7d3d
00000090: 76a5 26bd b9ce e5bd 67fc 37bd 9bdb 5abd
000000a0: 2b33 4bbd bc7e dbbd 741d 10be 3f05 42bd
000000b0: 7822 dfbd 1f67 e93c 414a 78bd d40d 08bc
000000c0: 9ef3 e3bb e54b afbc a463 19bd bfc2 8abd
000000d0: 5f38 46be 31b1 503c 13f1 95bd 4086 c2bd
000000e0: fe9d e1bc 36d8 9fbd f891 8d3d d5f0 513d
000000f0: 1a3b 37bd b6f0 2ebd 7b5c 883d 4d46 08be
00000100: d8a0 08be e9d6 83bb a1dc edbd 0ca6 a9bd
00000110: 0963 e4bd 29c0 93bd 4c5c d93d f3ae 0a3e
00000120: 4dab 13be a117 7d3d 962c 1a3d 677c f8bd
00000130: e99d 35be 886a 50bd 763b cabd ad86 14be
00000140: f66e 0d3d 3662 103e a4d4 21be 947a 143d
00000150: dfcb efbd f889 74bd 4bcd 063d 9778 423e
00000160: 1f54 293d a275 743d 945b 67bd 37fd ee3c
00000170: 458c 503d c924 95bd 29f1 b7bd 2695 6b3d
00000180: c0f4 b0bb 3430 ebbd 7777 f2bc c779 1f3d
00000190: e6e5 203d 20b4 5cbd 16b9 be3d d26b 08be
000001a0: 6740 203f 57d2 743d 06e2 54bd 3f01 5a3e
000001b0: 917e 123e 6ba8 4fbd 78f9 ff3c a947 99bc
000001c0: 38f8 8c3c 6191 05be 4879 253d 5f50 583d
000001d0: 3367 d3bd b5d7 d5bd 835c ed3c 0182 923d
000001e0: d04c d13c b39b 033a 271c 87bd 759f e03b
000001f0: aaf9 1ebd 2b92 133c db9f c1bd 8a6b afbc
00000200: 92ac 433d 8989 ab3c fa6b 203d 7e4b 3a3d
00000210: f228 7c3d d640 d0bd fb6d 88bd 3402 bf3b
00000220: 7596 38bd 172a 83bd 55a6 85bd 72ce 3d3c
00000230: 3521 71bd 86b4 863c 23b1 23bd 7f01 2c3d
00000240: beb6 ff3c 262a 46be 1817 09be 470e d4bd
00000250: 98e6 c1bd bf45 85ba 4fb3 543d ebbe a13c
00000260: c0c4 7ebc 08b4 2cbd c55e fbbb ee19 eabd
00000270: f834 c7bd 17c7 e1bd e1c2 fd3d 20f4 dbbd
00000280: 9fba 843d 76dd b3bd 710e 8b3d b8ea bbbd
00000290: 879b a4bd 54f9 693d 85b8 94bd 4541 45bd
000002a0: cb37 27be acf2 acbd 9423 6abd 5569 dcbd
000002b0: c201 01be 3939 943d 60cf a43d 6a58 743d
000002c0: 8181 8bbd 86d5 193d a8c1 3fbd dc71 89bc
000002d0: 0bda cb3c 16bc 213c 5b67 41bb 5536 4fbe
000002e0: d65a 9b3d 351e ffbd a38e 6ebd 3801 1dbd
000002f0: 7bb5 9fbd f040 3fbd 5fef 243d c6a3 f03b
00000300: 8da9 f73d 4b29 93bd 61bd f0bd 4950 bfbb
00000310: 9de0 98bd 4455 153d de05 bf3d 0833 a4bd
00000320: f8f9 c73c 1418 b3bd 0878 c7bd 60b0 02be
00000330: 9581 8abe 852f 6d3d 9ddd 37bd b7f2 81bc
00000340: 1d40 483c 8397 c9bd 7484 3cbd 217c 0dbc
00000350: 548c 68be 0bde 12bc 4581 63bd fea7 da3d
00000360: 3e26 c3bc 2d53 0cbd a808 53bd dad6 5fbd
00000370: 780d 42bd 8a66 71bc fc83 f5bc f5a3 703b
00000380: 71cf e5bc 17a5 293e 2c02 bbbd a450 ac3c
00000390: af92 0f3c d430 573d aeee 34bd 4e8c 1bbe
000003a0: 8453 483b f438 24bd 515c 3cbd 3903 96bd
000003b0: fc03 cf3c 8eba a4bd c6db b2bc 6eb3 b4bc
000003c0: aae4 7abd 7aa2 eabe f80e c6bd 00b3 1d3a
000003d0: 5e67 82bd 67dc 5abd 2251 7abd 7b9d 99bd
000003e0: 0a8d 483c 08d9 823c 4536 c1bd 0781 673c
000003f0: 95c9 123d d64f a1bc 936f 913d 2352 29bd
-0.06470066 0.04276564 -0.13577124 -0.026207017 -0.083236195 0.02444099 -0.18053573 -0.14948109
0.16412288 0.00727547 -0.12848218 0.20375334 0.06689389 -0.02206604 -0.0018249654 -0.031104505
-0.05161312 0.13568908 0.04233671 0.13530004 -0.0727264 0.035310768 -0.02382136 0.050453134
0.121628374 -0.05518602 0.046276655 0.00958673 -0.115689024 0.011332603 0.0664149 0.014592437
-0.091968864 -0.075798064 -0.117428586 0.06192807 -0.04068514 -0.1122107 -0.044918444 -0.05343209
-0.049609344 -0.10717532 -0.14073735 -0.047368284 -0.10895246 0.028491555 -0.06061769 -0.008304078
-0.0069565317 -0.021398494 -0.03744854 -0.06775426 -0.19357441 0.012737558 -0.07321372 -0.094982624
-0.027541157 -0.07804911 0.06912607 0.051255066 -0.044734098 -0.04271003 0.06658264 -0.13308068
-0.13342607 -0.004023422 -0.11614347 -0.08283624 -0.11151702 -0.07214386 0.10613307 0.135433
-0.14420815 0.061790112 0.037640177 -0.12133103 -0.17736019 -0.050882846 -0.098746225 -0.145045
0.03452965 0.14099964 -0.15803772 0.036249712 -0.11708807 -0.05970189 0.032910626 0.18991314
0.04133999 0.059682496 -0.05648382 0.029173477 0.05091502 -0.07282407 -0.089815445 0.057515286
-0.00540027 -0.114838034 -0.02959798 0.038934495 0.03928175 -0.053882718 0.09312646 -0.1332238
0.6259827 0.05977091 -0.051973365 0.21289538 0.14306094 -0.050697725 0.031246886 -0.018710928
0.017208204 -0.13043739 0.040398866 0.052811023 -0.10322418 -0.104415335 0.028974777 0.071537025
0.025549322 0.00050204544 -0.065971665 0.0068549463 -0.038812317 0.009007017 -0.09454318 -0.021413583
0.047771998 0.020939605 0.039165474 0.04548215 0.061562486 -0.101686165 -0.06661602 0.00582912
-0.045065362 -0.064045124 -0.06525866 0.011584865 -0.05886956 0.016443502 -0.039963853 0.041993614
0.031215068 -0.19352016 -0.13387716 -0.10354286 -0.094678104 -0.0010167881 0.051928815 0.019744357
-0.015549839 -0.04216388 -0.0076712095 -0.11430727 -0.097269 -0.110243015 0.12390686 -0.107399225
0.06480908 -0.08782475 0.06789864 -0.091756284 -0.08037477 0.057122543 -0.07261757 -0.04815795
-0.16329877 -0.084447235 -0.057162836 -0.10762278 -0.12598327 0.07237477 0.08047366 0.05965463
-0.0681181 0.037557147 -0.046815544 -0.016777925 0.024884244 0.009871503 -0.0029511068 -0.2023557
0.07585685 -0.124569334 -0.058241498 -0.03833124 -0.077982865 -0.04669279 0.040267345 0.007343742
0.12092886 -0.071856104 -0.11754871 -0.005838428 -0.074647166 0.03645827 0.09327291 -0.08017546
0.024411187 -0.08744827 -0.09739691 -0.12762594 -0.27051988 0.057906646 -0.04488908 -0.015862806
0.012222317 -0.09843352 -0.046024755 -0.008635552 -0.22709781 -0.008964072 -0.055543203 0.10676573
-0.023821946 -0.03425901 -0.051521927 -0.054648258 -0.047376126 -0.01473392 -0.029970162 0.003671882
-0.028053017 0.16566883 -0.091312736 0.021034546 0.008762999 0.0525368 -0.044172935 -0.1519024
0.0030567357 -0.040093377 -0.045986477 -0.073248334 0.025270455 -0.08043395 -0.021833312 -0.022058215
-0.061253227 -0.45827085 -0.09670824 0.0006015748 -0.06367372 -0.05343285 -0.06111253 -0.0750074
0.012240658 0.01597263 -0.09434179 0.014129884 0.035836775 -0.019691389 0.07101359 -0.041338097

convolution_6/Conv2D_bias f4 [64]
00000000: 687f 233c 79d9 cd3d ec56 b9bd 68ec 4cbd
00000010: 5ddc f3bd 7c9c 6fbd 51a7 85bd ee83 2cbe
00000020: 5e06 6e3d 7f7c 80bd 4be2 14bd b939 0dbd
00000030: 45e6 b4bc edca 0ebe bd79 c3bd d4aa 52bd
00000040: c3fe c2bc ff61 4cbd 4e72 173c e183 4abd
00000050: 5b76 dabd 49ee 16bd 12f8 bfbc 8722 bcbd
00000060: b39f c7bc 2bfc a8bd fb09 bfbd 362c ffbd
00000070: 5b88 9ebd bf15 783c d87b 9fbd 74a6 08bd
00000080: b207 b8bd 8147 1fbd 772b 29bd 222d b9bd
00000090: 7b63 06bd 7f85 ebbc 153f 51bd 442e cc3d
000000a0: 6a88 6cbd 2860 13bd 9b69 91bd 8ad1 b0bd
000000b0: 6839 82bd bf0f 23bd d80e debd 77d0 f1bc
000000c0: 8dd6 aabc 71e1 c8bc b733 27bd 216c d4bd
000000d0: a2f4 2ebd d54a 73bd 5311 a3bd da4b 59bd
000000e0: ace7 91bd e4e1 b6ba fba5 11be c87f e7bd
000000f0: 68ba e2bc c8ed aebe a8cd 14bd a038 19bd
0.0099791065 0.10051245 -0.09049782 -0.050030142 -0.11907265 -0.058498845 -0.06526054 -0.16847202
0.05811154 -0.06273746 -0.036348622 -0.034478877 -0.022082457 -0.13944598 -0.09544704 -0.051432446
-0.02380312 -0.049898144 0.009243561 -0.049442176 -0.10667106 -0.03684834 -0.023433719 -0.09186273
-0.024368143 -0.08251222 -0.093280755 -0.124596044 -0.077408515 0.015141903 -0.07787293 -0.033361867
-0.08985843 -0.03888655 -0.041301217 -0.090418115 -0.032809716 -0.02875018 -0.05108555 0.09969762
-0.057747282 -0.035980374 -0.07100221 -0.086337164 -0.063586056 -0.03980994 -0.10842675 -0.02951835
-0.020854259 -0.024521561 -0.040820803 -0.103721865 -0.04271377 -0.059397537 -0.07962289 -0.053050853
-0.07124266 -0.0013952819 -0.14223473 -0.11303669 -0.027676776 -0.34165788 -0.03632894 -0.037407517

convolution_6/kernel f4 [64, 3, 3, 64]
00000000: 1df2 56bd fa33 003d 9b2e f5be 5e7d 8abe
00000010: 36fe d1bc f5d8 20bd 8fd6 26be 08d7 713d
00000020: 7eec 8f3d 11b8 40be da7e 51bd 3bb7 36be
00000030: 0093 52be d710 cebd dcdb 19bd f085 6fbe
00000040: ca40 c9bc 5552 16be b677 0cbe 63bd abbd
00000050: ec23 83bd cd66 84bd 5ed9 853c 1745 b6bd
00000060: 0d67 90bc c2c1 02bd 19a7 b7bd c283 09be
00000070: b1a8 bbbd 4a91 b8bd 465c b4bc 7fdf 19bc
00000080: 7611 41be 587c 48be dcb9 4bbc bb70 a3bb
00000090: 0816 c2bc f766 bdbd 7915 02be b3a2 92bd
000000a0: 05df 6ebe 5c82 bdbc cf5a 1dbd 9a0e c8bd
000000b0: 4bdf 7dbe 0c00 fa3d 30e0 96be 4bc4 54bd
000000c0: 94ef a0bc d237 cdba 9b2d 0c3e 597b bbbd
000000d0: d128 c9bd 5c3b 4e3d 78ef 43bd 5b85 253b
000000e0: 0ac2 5b3b de40 cbbd 3b3c 59be aa16 5ebd
000000f0: 24ea d9bc dc7b 91bc c9a3 183d 34ad 14be
00000100: 1fbf 3e3d 2483 b3be 6146 8abe 9440 94bd
00000110: b979 abbc 78c0 47bd 9f0b 083d 73d1 3cbe
00000120: 3569 c9be c160 52bd 2705 bdbc 393d 2a3d
00000130: 42fc b13c ac1c 493e 6c1b 8b3d 0046 84be
00000140: dcfe ffbd 2283 81be d692 04be f0f1 0cbe
00000150: f46a 0ebd 2094 86bd 343b 51bd 7c5c 85bd
00000160: 18a9 cf3c 8605 f9bc c114 f7bd 1ac7 82bd
00000170: 2753 16bd 8f94 44bd aa6f 9dbd 3541 bfbb
00000180: 6d08 fcbd a966 13be bf11 0ebd 0a68 88bd
00000190: 7803 0bbc f802 e53c 5a2c d4bd 6fe3 10be
000001a0: 3a2a aebe a269 ccbd 7909 62bd d070 ebbd
000001b0: f74d 053d 2456 28bc b1c7 1dbe bc57 0e3d
000001c0: e7b6 bebe d94b cfbd 7ed0 74bd 5924 31be
000001d0: dd5f 65be 5cfe 94bd d638 7abd 44f8 9bbe
000001e0: 917f 03bd 4c77 2b3d 7a7a 49bd 87e7 8abd
000001f0: 1e06 bfbd 7c4d e83c 888d 75bd 2331 00be
00000200: 3de2 a0bd 3d2c febd db01 0f3e 2e4e 4cbe
00000210: b400 69ba 24b7 1f3b 1c7c 3abd 5ec7 173d
00000220: 1ee2 50be 3444 9fbc 392f e03b d7e6 abbd
00000230: ad09 32bd 9f78 40bc 551a 98bd 7a30 74bd
00000240: fe3e 503d fb3c ddbb 93cc bbbb 7871 2bbd
00000250: e437 96bc f76d 41bd a81e 7d3d 26ad 723c
00000260: e3ad 03be 6a51 bdbd 8762 15bc b240 77bd
00000270: 374d 19bd da85 fa3b 9528 09bd 7fe5 243e
00000280: 1b16 78bd 6104 423d 6049 043d ea2a 47bd
00000290: 65af cbbc 4d89 76bd 0771 74bd 4247 93bd
000002a0: 7bf0 31bc d449 b3bc e784 a33c e9d2 8ebd
000002b0: 7c84 13be 3a25 e6bc ba11 1bbe 29e8 9c3b
000002c0: f436 12bc 08ae 8ebb ac6c 813e d2ed cdbc
000002d0: 4727 11be b12b bebd 72b6 333c f8bc 24be
000002e0: 6f5b bcbb 5898 a2bd 8cfe 41be c5aa b33c
000002f0: 0fe0 9abb f972 5f3c 69e8 92bc e568 80bd
00000300: 479c f6bc ff4d 953d 8ecd d9bd fd33 ed3c
00000310: 33f3 5dba d4ea 6b3d d1a7 943d ede3 31bc
00000320: cc57 d13c 6cc5 f03a 6145 9a3c b104 07bc
00000330: e61c 6b3d 41ab a4bd 4e40 83bd f1b1 8c3d
00000340: cd9b 153d 0dbb f03c 1b85 37bd 05ee 833d
00000350: 2514 a0bc 22cf a9bb 1d72 c53d 4ac2 913c
00000360: 112a 733c 858a 7e3d 766e e03d b94f 87bc
00000370: 2821 073c 9a28 ce3c f768 c63c 6ecc 0f3d
00000380: a76c ceba c7bd a13c fbf1 2bbd 1388 aabc
00000390: 6e20 d4bc 690b c93d 10e2 a83d cc78 8c3b
000003a0: 68b3 1cbe e366 ae3d 14ab 853d 7719 c13c
000003b0: bfc6 ecbd 7d5f 31be acf5 8c3c 0677 abbc
000003c0: 012e 4b3d d696 b13d 625d 1dbd 4e29 be3d
000003d0: ba01 05bd b98a 48bd 988f e1bd 7382 b23d
000003e0: 46e5 723d a799 4f3d 0aab 2ebb 3a02 c63c
000003f0: 9035 7c3d 722d 683d 462e e93b f02d b9bd
-0.05247699 0.03129957 -0.4788712 -0.27048773 -0.025633913 -0.039269406 -0.16292785 0.05904296
0.07027529 -0.18820216 -0.051146366 -0.17843334 -0.20563889 -0.10061806 -0.03756319 -0.23390937
-0.024567027 -0.14679845 -0.13717541 -0.08385732 -0.06403336 -0.0646492 0.016339 -0.088998966
-0.017627263 -0.031923063 -0.08967418 -0.13429168 -0.09163035 -0.09012087 -0.022016656 -0.0093916645
-0.18854317 -0.19578683 -0.012434449 -0.0049878038 -0.023692146 -0.092481546 -0.12703504 -0.07159939
-0.23327263 -0.02313345 -0.03841668 -0.0976841 -0.24792211 0.1220704 -0.29467916 -0.051945012
-0.01964549 -0.0015656895 0.13689272 -0.09154386 -0.09822238 0.05034958 -0.047835797 0.0025256488
0.0033532404 -0.09924482 -0.21214382 -0.054220833 -0.026600905 -0.017759256 0.037265573 -0.14519197
0.046568986 -0.3506099 -0.2700682 -0.0723888 -0.020932065 -0.048767537 0.033214208 -0.18439274
-0.3933808 -0.051361803 -0.023073746 0.041562293 0.021726731 0.19639844 0.0679234 -0.25834656
-0.124997824 -0.2529536 -0.12946638 -0.13764167 -0.034769967 -0.06571221 -0.05108185 -0.065117806
0.025349185 -0.030398142 -0.12064505 -0.06385632 -0.036700394 -0.04799324 -0.07687314 -0.0058366307
-0.123062946 -0.1439463 -0.034684893 -0.06660469 -0.008484714 0.027955517 -0.10360022 -0.14149259
-0.3401659 -0.09981085 -0.055184815 -0.11496127 0.032545056 -0.010274444 -0.15408207 0.03475164
-0.37248918 -0.10121889 -0.059769146 -0.17299022 -0.2239985 -0.07275078 -0.06108936 -0.3046285
-0.03210408 0.041861817 -0.04918907 -0.067824416 -0.09327339 0.02835726 -0.059949428 -0.12518744
-0.078556515 -0.124107815 0.13965552 -0.19951698 -0.00088883494 0.0024370635 -0.045528516 0.037055366
-0.20398757 -0.019441701 0.006841567 -0.083936386 -0.04346626 -0.011747508 -0.074268974 -0.059616543
0.050841324 -0.006751654 -0.0057311743 -0.04185626 -0.018337198 -0.04722401 0.061796814 0.01481179
-0.12859301 -0.09244044 -0.009117729 -0.060364433 -0.037427153 0.007645351 -0.033485968 0.16103171
-0.060567956 0.047367457 0.03229654 -0.04862491 -0.024863908 -0.060189534 -0.059678104 -0.07191326
-0.010860558 -0.02188579 0.019960834 -0.06973822 -0.14406008 -0.028093923 -0.15143481 0.004788418
-0.008924235 -0.0043542422 0.25278223 -0.025137816 -0.1417514 -0.09285677 0.010968791 -0.16087711
-0.0057482044 -0.079392135 -0.18944758 0.021932015 -0.004726417 0.013638251 -0.017933087 -0.06270007
-0.030103816 0.07290267 -0.106349096 0.028955454 -0.00084667205 0.057596996 0.07258571 -0.010857564
0.02555456 0.0018369383 0.01883191 -0.008240865 0.057400607 -0.080404766 -0.064087495 0.06869877
0.036525536 0.029386068 -0.044804674 0.06441883 -0.019540856 -0.005182163 0.09640906 0.01779284
0.014841572 0.06214382 0.10958569 -0.016517507 0.008247651 0.025165845 0.024219973 0.03510707
-0.0015748934 0.019743813 -0.041978817 -0.020816838 -0.02589437 0.098166294 0.08246243 0.004286861
-0.15302813 0.08515718 0.06526771 0.023571713 -0.11561345 -0.17321582 0.01720699 -0.020930778
0.04960442 0.08671348 -0.038419135 0.09285222 -0.03247235 -0.04896042 -0.110137165 0.087162875
0.059300683 0.050683644 -0.002665224 0.024170984 0.06157452 0.056683965 0.007116112 -0.09041965

convoluton_1/Conv2D_bias f4 [16]
00000000: 789d 4ebd e59d 6ebf 8f2a f23e 41bf 4c3d
00000010: f24b dd3d f7f8 4ebd 737d 123f 69a2 41be
00000020: 156a 3e3e 6bf2 733e 6e31 5fbe c7d5 443f
00000030: d602 74bc 297a d53e 4f85 8bbd 9cce bb3d
-0.050443143 -0.9320968 0.47298095 0.04998708 0.10805501 -0.0505304 0.5722267 -0.18909611
0.18595155 0.23822944 -0.217962 0.768887 -0.014893254 0.41694763 -0.06812536 0.09170267

convoluton_1/kernel f4 [16, 3, 3, 3]
00000000: c71c cebd b8b1 833d dacd c03d d198 f23d
00000010: aa1e 21bd 59a9 a8bb 681c 2ebe 9264 143d
00000020: 3059 df3d 172d a6bd a988 79bd 42a0 2abe
00000030: 8015 223e 0ae2 f63d 4ef2 793d e5ef f63d
00000040: 5d08 d73c cb24 5c3d a27d 0d3e f991 25bd
00000050: 65c0 17be e394 9a3d e0da 5fbc a949 f03d
00000060: 2c51 3ebc f19f 70be ddde 04be 1be3 6cbd
00000070: 1164 d73d 3b9d 81bb 0cf3 833d 60da 843d
00000080: 8851 063e 2882 cb3c ac67 353e bb9f 933c
00000090: 6181 823d ac9f a8bc 6215 193e 11b9 f4bd
000000a0: 7810 673e 485e 67bd d29f 5e3d f0fd ddbd
000000b0: c10e 853e 012b 3dbe 33ab 90bd ae5c 993d
000000c0: ee2f 933d cca5 a83d bdaf 5a3d 2180 61bd
000000d0: e431 97bd 57ff 223e ff50 76be 5258 dbbe
000000e0: 66f8 3cbd fd86 e43d 9647 c6bd 9848 fc3d
000000f0: 825a 1b3e 61f3 ecbd 161d 453e 4c50 cabd
00000100: a41a c7be 32e2 dd3d a10b 3abe 44c9 8dbe
00000110: 8cdf 14be 42dc ffbd 27df 00be bd28 12be
00000120: 5ba3 ccbe 3814 6bbe 4716 67be c416 053e
00000130: 0708 313d f833 23be a81e b3bd 376a b73b
00000140: ba82 70be 6f96 03bd e01a cbbd 8bba 54be
00000150: 8bdf 503d 8117 55be 6df2 9abd 8af2 9fbd
00000160: 03f6 99bc 821b 62be 1947 9abd 4554 49be
00000170: af57 d3bd 3c3d 6bbd 6822 82be 3b29 b9bd
00000180: d0bf f5bb f0d6 8a3d 570d 133e 83db 0a3e
00000190: 9e03 9d3d aab1 a3bd b79e 3d3e 7848 f03d
000001a0: 9ff1 3bbd f774 9cbd 868d ef3d c3bc 96bc
000001b0: 0938 81be 079b 0cbe 2492 25be a07d 1bbe
000001c0: 2a10 2dbd 8e62 753d 1d5a f8bd 0225 1a3e
000001d0: 78df ef3d a1d9 39be ac33 c53d 1689 dbbd
000001e0: 6a0b 50be c31c 74be 2735 a0be 86e8 003e
000001f0: 195d 71be e355 2bbe 8c09 4d3e 19f9 083e
00000200: d2c7 c93d 4bfe e6bd 8794 50be cec6 dd3c
00000210: 3e24 01be ca70 1cbe bde5 adbe fef7 3e3d
00000220: 258d eb3d 439d 06be e982 dc3c ec45 96bd
00000230: eb6d 89bc 7ddb adbd d73e 443d 31ba 1dbe
00000240: 98ac 9d3d 8529 1b3e e854 50be 970a bcbd
00000250: 45f0 93bd 5feb 1cbd 87f1 92be acc4 71be
00000260: 1e8e d6bc 79a0 2c3e fd30 84be 032a 21be
00000270: 91ca 77bd 8efd 44be 3c4d 183e 2f84 1bbe
00000280: be70 e4bd e6de a3bd 4f70 f73c 7801 0cbe
00000290: 06b4 ea3c 388a 5e3e 384f 1a3e 51df 7d3e
000002a0: 9293 893e 2feb 7d3e 3b00 913d 1e02 45bd
000002b0: 8cb1 c63c b229 52bd 9d71 ee3d 3130 64be
000002c0: b4b4 43be a4d3 bd3c d724 41be 05f1 75be
000002d0: 00dd 70bc 20b4 adbb d58b b5bd e937 69be
000002e0: 5e3f 9cbe 8d08 9bbe 90c3 5b3e 83cb 31be
000002f0: f1a3 66bd 5d76 87bc 5179 25be c77d d13d
00000300: 60a8 ccbd 8998 4fbc 32b1 4f3c c029 223d
00000310: b9d2 9dbd 9403 1dbe 8eae f1bd 768b 033e
00000320: 074c 1cbe 91ec eb3d ce68 a5bd 2faf ba3d
00000330: 653f 58be 25a3 b23d 4b64 923d 942e b5bc
00000340: 7c0f 173e cc5a a8bd 455a b33d 1e77 00be
00000350: bfce 2b3d 9ba3 e43d 1f61 f7bd 1c26 57be
00000360: 5164 0e3e eba5 ec3d 1429 9b3c 6376 073e
00000370: 740f 3e3c 8257 ef3d 1dab f53d c564 0abe
00000380: 950b 543d f5d8 1c3e 8718 673d 11e4 21be
00000390: f9e8 403e 47ee 0e3e a989 d13c ed47 aabb
000003a0: a5d0 75be af9d 6fbe bc04 823d 4c51 4ebe
000003b0: 8cf1 0bbe a83c eabc c9f4 7abc b44f 733c
000003c0: eea4 4abc ff17 f53c 2aee 4dbb 0519 ef3d
000003d0: 7e4b 12be 25b1 073e 7d6c b1bd 22ce c7bd
000003e0: e3b0 65bd cfac 6abc 0d04 c7bd d7f3 04be
000003f0: c127 5dbe d8cb 17be 76a6 09be af89 42be
-0.100640826 0.064303815 0.09414263 0.11845554 -0.039335884 -0.005147141 -0.17003024 0.036228724
0.10905683 -0.08114069 -0.060921345 -0.16662696 0.15828514 0.12054832 0.061022095 0.12057475
0.026249105 0.053746026 0.13817456 -0.040422413 -0.14819486 0.07547929 -0.013663024 0.117327996
-0.011616033 -0.23498513 -0.1297564 -0.057833772 0.10517133 -0.003955511 0.06442842 0.06486964
0.13117039 0.024842337 0.17715329 0.018020501 0.06372333 -0.02058395 0.14949563 -0.11949361
0.22564876 -0.056486398 0.054351635 -0.1083945 0.2598782 -0.18473436 -0.07063904 0.0748838
0.07186876 0.08234748 0.053390253 -0.055053834 -0.07382563 0.15917717 -0.24054335 -0.4284082
-0.04613533 0.111585595 -0.09681623 0.12318534 0.15171245 -0.11569858 0.19249377 -0.09878597
-0.38887513 0.10834159 -0.18168499 -0.27692616 -0.14538401 -0.12493183 -0.12585126 -0.14273353
-0.3996838 -0.22956932 -0.22567092 0.12996966 0.043220546 -0.15937793 -0.087460816 0.0055973786
-0.23487368 -0.032125887 -0.099172354 -0.20774285 0.050994437 -0.20809747 -0.0756577 -0.078099325
-0.018794065 -0.22080806 -0.07533092 -0.19661053 -0.10319459 -0.057431445 -0.25416875 -0.09041067
-0.0074996725 0.06779277 0.14360557 0.135603 0.076667055 -0.07992871 0.18517576 0.11732572
-0.045884725 -0.07639497 0.11696915 -0.018400555 -0.25238064 -0.13731013 -0.1616903 -0.15184641
-0.042251743 0.059908442 -0.12126563 0.1505318 0.11712545 -0.18149425 0.09628996 -0.107195064
-0.20316854 -0.23839097 -0.31290552 0.125887 -0.2357067 -0.16731982 0.20023173 0.13376273
0.09852566 -0.11278971 -0.20369159 0.027072337 -0.12611482 -0.152774 -0.3396434 0.046623223
0.115015306 -0.13145928 0.026917892 -0.07337555 -0.016776046 -0.0848913 0.04791149 -0.15403058
0.07698935 0.15152557 -0.20344889 -0.09181707 -0.07223562 -0.038310405 -0.28699896 -0.2361018
-0.026190814 0.1685809 -0.25818625 -0.15738682 -0.060495917 -0.19237348 0.14873213 -0.15187143
-0.11154316 -0.08001499 0.03020492 -0.13672435 0.028650295 0.21732414 0.15069282 0.2479222
0.268704 0.24796747 0.07080122 -0.048097722 0.024254583 -0.051309295 0.11642764 -0.22284009
-0.19111902 0.023172207 -0.1886171 -0.24017723 -0.014701128 -0.0053010136 -0.088645615 -0.22775234
-0.30517095 -0.3027996 0.2146132 -0.1736279 -0.05630869 -0.016535932 -0.1615956 0.10229068
-0.099930525 -0.012670645 0.012676524 0.039590597 -0.07706208 -0.15333396 -0.11800872 0.12846169
-0.15263377 0.11519731 -0.080766305 0.09115445 -0.21117933 0.087225236 0.071480356 -0.022116937
0.14752 -0.08220443 0.08757452 -0.1254544 0.041945215 0.11164018 -0.12079071 -0.21010631
0.13905455 0.11555084 0.018940486 0.13228755 0.011600364 0.11686613 0.11995528 -0.13515003
0.051768858 0.15317138 0.056419875 -0.15809657 0.18838872 0.13958083 0.025578337 -0.0051965625
-0.24005373 -0.23399995 0.06348559 -0.201482 -0.13666362 -0.028593376 -0.01531715 0.014850546
-0.012368424 0.029918669 -0.0031422474 0.11674694 -0.1428661 0.13251169 -0.086632706 -0.097561136
-0.056076895 -0.014323427 -0.097175695 -0.12983643 -0.21597196 -0.14823854 -0.13442406 -0.18997835

dense1/MatMul_bias f4 [32]
00000000: 2163 8b3d 1d04 953c 497c aabd 49ca a33d
00000010: c57d 4dbd 4563 92bd e2c5 813b 56d7 ac3d
00000020: 981f aebd 03a5 87bd 06ed 64bd ffb5 943d
00000030: 9025 6dbd 3448 2dbd 24ef 843d 97a1 3e3d
00000040: ee26 ae3d 9469 8d3d cff2 8e3d 82bb 3abc
00000050: f0bd 6fbd 667a 9c3d 6791 a2bd 9bb3 afbd
00000060: 48f1 a33d 7041 f33c 0e0b b73d 5dd1 a8bd
00000070: 4d4c 3dbd e86a 92bd d4d6 adbd 9d5e 923c
0.06806017 0.018190438 -0.08324487 0.07997567 -0.05016877 -0.071478404 0.003960357 0.084395096
-0.0850212 -0.0662327 -0.055890106 0.072612755 -0.05789715 -0.042305186 0.06490925 0.046540823
0.08503519 0.06904903 0.06979906 -0.011397244 -0.058530748 0.07640533 -0.079378895 -0.08579179
0.08005005 0.029694289 0.089376554 -0.08243058 -0.046215344 -0.07149297 -0.08488241 0.01786738
